{
    "format": "layers-model",
    "generatedBy": "keras v3.4.1",
    "convertedBy": "TensorFlow.js Converter v4.20.0",
    "modelTopology": {
        "keras_version": "3.4.1",
        "backend": "tensorflow",
        "model_config": {
            "class_name": "Functional",
            "config": {
                "name": "model",
                "trainable": true,
                "layers": [
                    {
                        "class_name": "InputLayer",
                        "config": {
                            "batch_shape": [
                                null,
                                64,
                                64,
                                3
                            ],
                            "dtype": "float32",
                            "sparse": false,
                            "name": "input_1"
                        },
                        "name": "input_1",
                        "inbound_nodes": []
                    },
                    {
                        "class_name": "Conv2D",
                        "config": {
                            "name": "block1_conv1",
                            "trainable": false,
                            "dtype": {
                                "module": "keras",
                                "class_name": "DTypePolicy",
                                "config": {
                                    "name": "float32"
                                },
                                "registered_name": null
                            },
                            "filters": 64,
                            "kernel_size": [
                                3,
                                3
                            ],
                            "strides": [
                                1,
                                1
                            ],
                            "padding": "same",
                            "data_format": "channels_last",
                            "dilation_rate": [
                                1,
                                1
                            ],
                            "groups": 1,
                            "activation": "relu",
                            "use_bias": true,
                            "kernel_initializer": {
                                "module": "keras.initializers",
                                "class_name": "GlorotUniform",
                                "config": {
                                    "seed": null
                                },
                                "registered_name": null
                            },
                            "bias_initializer": {
                                "module": "keras.initializers",
                                "class_name": "Zeros",
                                "config": {},
                                "registered_name": null
                            },
                            "kernel_regularizer": null,
                            "bias_regularizer": null,
                            "activity_regularizer": null,
                            "kernel_constraint": null,
                            "bias_constraint": null
                        },
                        "name": "block1_conv1",
                        "inbound_nodes": [
                            {
                                "args": [
                                    {
                                        "class_name": "__keras_tensor__",
                                        "config": {
                                            "shape": [
                                                null,
                                                64,
                                                64,
                                                3
                                            ],
                                            "dtype": "float32",
                                            "keras_history": [
                                                "input_1",
                                                0,
                                                0
                                            ]
                                        }
                                    }
                                ],
                                "kwargs": {}
                            }
                        ]
                    },
                    {
                        "class_name": "Conv2D",
                        "config": {
                            "name": "block1_conv2",
                            "trainable": false,
                            "dtype": {
                                "module": "keras",
                                "class_name": "DTypePolicy",
                                "config": {
                                    "name": "float32"
                                },
                                "registered_name": null
                            },
                            "filters": 64,
                            "kernel_size": [
                                3,
                                3
                            ],
                            "strides": [
                                1,
                                1
                            ],
                            "padding": "same",
                            "data_format": "channels_last",
                            "dilation_rate": [
                                1,
                                1
                            ],
                            "groups": 1,
                            "activation": "relu",
                            "use_bias": true,
                            "kernel_initializer": {
                                "module": "keras.initializers",
                                "class_name": "GlorotUniform",
                                "config": {
                                    "seed": null
                                },
                                "registered_name": null
                            },
                            "bias_initializer": {
                                "module": "keras.initializers",
                                "class_name": "Zeros",
                                "config": {},
                                "registered_name": null
                            },
                            "kernel_regularizer": null,
                            "bias_regularizer": null,
                            "activity_regularizer": null,
                            "kernel_constraint": null,
                            "bias_constraint": null
                        },
                        "name": "block1_conv2",
                        "inbound_nodes": [
                            {
                                "args": [
                                    {
                                        "class_name": "__keras_tensor__",
                                        "config": {
                                            "shape": [
                                                null,
                                                64,
                                                64,
                                                64
                                            ],
                                            "dtype": "float32",
                                            "keras_history": [
                                                "block1_conv1",
                                                0,
                                                0
                                            ]
                                        }
                                    }
                                ],
                                "kwargs": {}
                            }
                        ]
                    },
                    {
                        "class_name": "MaxPooling2D",
                        "config": {
                            "name": "block1_pool",
                            "trainable": false,
                            "dtype": {
                                "module": "keras",
                                "class_name": "DTypePolicy",
                                "config": {
                                    "name": "float32"
                                },
                                "registered_name": null
                            },
                            "pool_size": [
                                2,
                                2
                            ],
                            "padding": "valid",
                            "strides": [
                                2,
                                2
                            ],
                            "data_format": "channels_last"
                        },
                        "name": "block1_pool",
                        "inbound_nodes": [
                            {
                                "args": [
                                    {
                                        "class_name": "__keras_tensor__",
                                        "config": {
                                            "shape": [
                                                null,
                                                64,
                                                64,
                                                64
                                            ],
                                            "dtype": "float32",
                                            "keras_history": [
                                                "block1_conv2",
                                                0,
                                                0
                                            ]
                                        }
                                    }
                                ],
                                "kwargs": {}
                            }
                        ]
                    },
                    {
                        "class_name": "Conv2D",
                        "config": {
                            "name": "block2_conv1",
                            "trainable": true,
                            "dtype": {
                                "module": "keras",
                                "class_name": "DTypePolicy",
                                "config": {
                                    "name": "float32"
                                },
                                "registered_name": null
                            },
                            "filters": 128,
                            "kernel_size": [
                                3,
                                3
                            ],
                            "strides": [
                                1,
                                1
                            ],
                            "padding": "same",
                            "data_format": "channels_last",
                            "dilation_rate": [
                                1,
                                1
                            ],
                            "groups": 1,
                            "activation": "relu",
                            "use_bias": true,
                            "kernel_initializer": {
                                "module": "keras.initializers",
                                "class_name": "GlorotUniform",
                                "config": {
                                    "seed": null
                                },
                                "registered_name": null
                            },
                            "bias_initializer": {
                                "module": "keras.initializers",
                                "class_name": "Zeros",
                                "config": {},
                                "registered_name": null
                            },
                            "kernel_regularizer": null,
                            "bias_regularizer": null,
                            "activity_regularizer": null,
                            "kernel_constraint": null,
                            "bias_constraint": null
                        },
                        "name": "block2_conv1",
                        "inbound_nodes": [
                            {
                                "args": [
                                    {
                                        "class_name": "__keras_tensor__",
                                        "config": {
                                            "shape": [
                                                null,
                                                32,
                                                32,
                                                64
                                            ],
                                            "dtype": "float32",
                                            "keras_history": [
                                                "block1_pool",
                                                0,
                                                0
                                            ]
                                        }
                                    }
                                ],
                                "kwargs": {}
                            }
                        ]
                    },
                    {
                        "class_name": "Conv2D",
                        "config": {
                            "name": "block2_conv2",
                            "trainable": true,
                            "dtype": {
                                "module": "keras",
                                "class_name": "DTypePolicy",
                                "config": {
                                    "name": "float32"
                                },
                                "registered_name": null
                            },
                            "filters": 128,
                            "kernel_size": [
                                3,
                                3
                            ],
                            "strides": [
                                1,
                                1
                            ],
                            "padding": "same",
                            "data_format": "channels_last",
                            "dilation_rate": [
                                1,
                                1
                            ],
                            "groups": 1,
                            "activation": "relu",
                            "use_bias": true,
                            "kernel_initializer": {
                                "module": "keras.initializers",
                                "class_name": "GlorotUniform",
                                "config": {
                                    "seed": null
                                },
                                "registered_name": null
                            },
                            "bias_initializer": {
                                "module": "keras.initializers",
                                "class_name": "Zeros",
                                "config": {},
                                "registered_name": null
                            },
                            "kernel_regularizer": null,
                            "bias_regularizer": null,
                            "activity_regularizer": null,
                            "kernel_constraint": null,
                            "bias_constraint": null
                        },
                        "name": "block2_conv2",
                        "inbound_nodes": [
                            {
                                "args": [
                                    {
                                        "class_name": "__keras_tensor__",
                                        "config": {
                                            "shape": [
                                                null,
                                                32,
                                                32,
                                                128
                                            ],
                                            "dtype": "float32",
                                            "keras_history": [
                                                "block2_conv1",
                                                0,
                                                0
                                            ]
                                        }
                                    }
                                ],
                                "kwargs": {}
                            }
                        ]
                    },
                    {
                        "class_name": "MaxPooling2D",
                        "config": {
                            "name": "block2_pool",
                            "trainable": true,
                            "dtype": {
                                "module": "keras",
                                "class_name": "DTypePolicy",
                                "config": {
                                    "name": "float32"
                                },
                                "registered_name": null
                            },
                            "pool_size": [
                                2,
                                2
                            ],
                            "padding": "valid",
                            "strides": [
                                2,
                                2
                            ],
                            "data_format": "channels_last"
                        },
                        "name": "block2_pool",
                        "inbound_nodes": [
                            {
                                "args": [
                                    {
                                        "class_name": "__keras_tensor__",
                                        "config": {
                                            "shape": [
                                                null,
                                                32,
                                                32,
                                                128
                                            ],
                                            "dtype": "float32",
                                            "keras_history": [
                                                "block2_conv2",
                                                0,
                                                0
                                            ]
                                        }
                                    }
                                ],
                                "kwargs": {}
                            }
                        ]
                    },
                    {
                        "class_name": "Conv2D",
                        "config": {
                            "name": "block3_conv1",
                            "trainable": true,
                            "dtype": {
                                "module": "keras",
                                "class_name": "DTypePolicy",
                                "config": {
                                    "name": "float32"
                                },
                                "registered_name": null
                            },
                            "filters": 256,
                            "kernel_size": [
                                3,
                                3
                            ],
                            "strides": [
                                1,
                                1
                            ],
                            "padding": "same",
                            "data_format": "channels_last",
                            "dilation_rate": [
                                1,
                                1
                            ],
                            "groups": 1,
                            "activation": "relu",
                            "use_bias": true,
                            "kernel_initializer": {
                                "module": "keras.initializers",
                                "class_name": "GlorotUniform",
                                "config": {
                                    "seed": null
                                },
                                "registered_name": null
                            },
                            "bias_initializer": {
                                "module": "keras.initializers",
                                "class_name": "Zeros",
                                "config": {},
                                "registered_name": null
                            },
                            "kernel_regularizer": null,
                            "bias_regularizer": null,
                            "activity_regularizer": null,
                            "kernel_constraint": null,
                            "bias_constraint": null
                        },
                        "name": "block3_conv1",
                        "inbound_nodes": [
                            {
                                "args": [
                                    {
                                        "class_name": "__keras_tensor__",
                                        "config": {
                                            "shape": [
                                                null,
                                                16,
                                                16,
                                                128
                                            ],
                                            "dtype": "float32",
                                            "keras_history": [
                                                "block2_pool",
                                                0,
                                                0
                                            ]
                                        }
                                    }
                                ],
                                "kwargs": {}
                            }
                        ]
                    },
                    {
                        "class_name": "Conv2D",
                        "config": {
                            "name": "block3_conv2",
                            "trainable": true,
                            "dtype": {
                                "module": "keras",
                                "class_name": "DTypePolicy",
                                "config": {
                                    "name": "float32"
                                },
                                "registered_name": null
                            },
                            "filters": 256,
                            "kernel_size": [
                                3,
                                3
                            ],
                            "strides": [
                                1,
                                1
                            ],
                            "padding": "same",
                            "data_format": "channels_last",
                            "dilation_rate": [
                                1,
                                1
                            ],
                            "groups": 1,
                            "activation": "relu",
                            "use_bias": true,
                            "kernel_initializer": {
                                "module": "keras.initializers",
                                "class_name": "GlorotUniform",
                                "config": {
                                    "seed": null
                                },
                                "registered_name": null
                            },
                            "bias_initializer": {
                                "module": "keras.initializers",
                                "class_name": "Zeros",
                                "config": {},
                                "registered_name": null
                            },
                            "kernel_regularizer": null,
                            "bias_regularizer": null,
                            "activity_regularizer": null,
                            "kernel_constraint": null,
                            "bias_constraint": null
                        },
                        "name": "block3_conv2",
                        "inbound_nodes": [
                            {
                                "args": [
                                    {
                                        "class_name": "__keras_tensor__",
                                        "config": {
                                            "shape": [
                                                null,
                                                16,
                                                16,
                                                256
                                            ],
                                            "dtype": "float32",
                                            "keras_history": [
                                                "block3_conv1",
                                                0,
                                                0
                                            ]
                                        }
                                    }
                                ],
                                "kwargs": {}
                            }
                        ]
                    },
                    {
                        "class_name": "Conv2D",
                        "config": {
                            "name": "block3_conv3",
                            "trainable": true,
                            "dtype": {
                                "module": "keras",
                                "class_name": "DTypePolicy",
                                "config": {
                                    "name": "float32"
                                },
                                "registered_name": null
                            },
                            "filters": 256,
                            "kernel_size": [
                                3,
                                3
                            ],
                            "strides": [
                                1,
                                1
                            ],
                            "padding": "same",
                            "data_format": "channels_last",
                            "dilation_rate": [
                                1,
                                1
                            ],
                            "groups": 1,
                            "activation": "relu",
                            "use_bias": true,
                            "kernel_initializer": {
                                "module": "keras.initializers",
                                "class_name": "GlorotUniform",
                                "config": {
                                    "seed": null
                                },
                                "registered_name": null
                            },
                            "bias_initializer": {
                                "module": "keras.initializers",
                                "class_name": "Zeros",
                                "config": {},
                                "registered_name": null
                            },
                            "kernel_regularizer": null,
                            "bias_regularizer": null,
                            "activity_regularizer": null,
                            "kernel_constraint": null,
                            "bias_constraint": null
                        },
                        "name": "block3_conv3",
                        "inbound_nodes": [
                            {
                                "args": [
                                    {
                                        "class_name": "__keras_tensor__",
                                        "config": {
                                            "shape": [
                                                null,
                                                16,
                                                16,
                                                256
                                            ],
                                            "dtype": "float32",
                                            "keras_history": [
                                                "block3_conv2",
                                                0,
                                                0
                                            ]
                                        }
                                    }
                                ],
                                "kwargs": {}
                            }
                        ]
                    },
                    {
                        "class_name": "MaxPooling2D",
                        "config": {
                            "name": "block3_pool",
                            "trainable": true,
                            "dtype": {
                                "module": "keras",
                                "class_name": "DTypePolicy",
                                "config": {
                                    "name": "float32"
                                },
                                "registered_name": null
                            },
                            "pool_size": [
                                2,
                                2
                            ],
                            "padding": "valid",
                            "strides": [
                                2,
                                2
                            ],
                            "data_format": "channels_last"
                        },
                        "name": "block3_pool",
                        "inbound_nodes": [
                            {
                                "args": [
                                    {
                                        "class_name": "__keras_tensor__",
                                        "config": {
                                            "shape": [
                                                null,
                                                16,
                                                16,
                                                256
                                            ],
                                            "dtype": "float32",
                                            "keras_history": [
                                                "block3_conv3",
                                                0,
                                                0
                                            ]
                                        }
                                    }
                                ],
                                "kwargs": {}
                            }
                        ]
                    },
                    {
                        "class_name": "Conv2D",
                        "config": {
                            "name": "block4_conv1",
                            "trainable": true,
                            "dtype": {
                                "module": "keras",
                                "class_name": "DTypePolicy",
                                "config": {
                                    "name": "float32"
                                },
                                "registered_name": null
                            },
                            "filters": 512,
                            "kernel_size": [
                                3,
                                3
                            ],
                            "strides": [
                                1,
                                1
                            ],
                            "padding": "same",
                            "data_format": "channels_last",
                            "dilation_rate": [
                                1,
                                1
                            ],
                            "groups": 1,
                            "activation": "relu",
                            "use_bias": true,
                            "kernel_initializer": {
                                "module": "keras.initializers",
                                "class_name": "GlorotUniform",
                                "config": {
                                    "seed": null
                                },
                                "registered_name": null
                            },
                            "bias_initializer": {
                                "module": "keras.initializers",
                                "class_name": "Zeros",
                                "config": {},
                                "registered_name": null
                            },
                            "kernel_regularizer": null,
                            "bias_regularizer": null,
                            "activity_regularizer": null,
                            "kernel_constraint": null,
                            "bias_constraint": null
                        },
                        "name": "block4_conv1",
                        "inbound_nodes": [
                            {
                                "args": [
                                    {
                                        "class_name": "__keras_tensor__",
                                        "config": {
                                            "shape": [
                                                null,
                                                8,
                                                8,
                                                256
                                            ],
                                            "dtype": "float32",
                                            "keras_history": [
                                                "block3_pool",
                                                0,
                                                0
                                            ]
                                        }
                                    }
                                ],
                                "kwargs": {}
                            }
                        ]
                    },
                    {
                        "class_name": "Conv2D",
                        "config": {
                            "name": "block4_conv2",
                            "trainable": true,
                            "dtype": {
                                "module": "keras",
                                "class_name": "DTypePolicy",
                                "config": {
                                    "name": "float32"
                                },
                                "registered_name": null
                            },
                            "filters": 512,
                            "kernel_size": [
                                3,
                                3
                            ],
                            "strides": [
                                1,
                                1
                            ],
                            "padding": "same",
                            "data_format": "channels_last",
                            "dilation_rate": [
                                1,
                                1
                            ],
                            "groups": 1,
                            "activation": "relu",
                            "use_bias": true,
                            "kernel_initializer": {
                                "module": "keras.initializers",
                                "class_name": "GlorotUniform",
                                "config": {
                                    "seed": null
                                },
                                "registered_name": null
                            },
                            "bias_initializer": {
                                "module": "keras.initializers",
                                "class_name": "Zeros",
                                "config": {},
                                "registered_name": null
                            },
                            "kernel_regularizer": null,
                            "bias_regularizer": null,
                            "activity_regularizer": null,
                            "kernel_constraint": null,
                            "bias_constraint": null
                        },
                        "name": "block4_conv2",
                        "inbound_nodes": [
                            {
                                "args": [
                                    {
                                        "class_name": "__keras_tensor__",
                                        "config": {
                                            "shape": [
                                                null,
                                                8,
                                                8,
                                                512
                                            ],
                                            "dtype": "float32",
                                            "keras_history": [
                                                "block4_conv1",
                                                0,
                                                0
                                            ]
                                        }
                                    }
                                ],
                                "kwargs": {}
                            }
                        ]
                    },
                    {
                        "class_name": "Conv2D",
                        "config": {
                            "name": "block4_conv3",
                            "trainable": true,
                            "dtype": {
                                "module": "keras",
                                "class_name": "DTypePolicy",
                                "config": {
                                    "name": "float32"
                                },
                                "registered_name": null
                            },
                            "filters": 512,
                            "kernel_size": [
                                3,
                                3
                            ],
                            "strides": [
                                1,
                                1
                            ],
                            "padding": "same",
                            "data_format": "channels_last",
                            "dilation_rate": [
                                1,
                                1
                            ],
                            "groups": 1,
                            "activation": "relu",
                            "use_bias": true,
                            "kernel_initializer": {
                                "module": "keras.initializers",
                                "class_name": "GlorotUniform",
                                "config": {
                                    "seed": null
                                },
                                "registered_name": null
                            },
                            "bias_initializer": {
                                "module": "keras.initializers",
                                "class_name": "Zeros",
                                "config": {},
                                "registered_name": null
                            },
                            "kernel_regularizer": null,
                            "bias_regularizer": null,
                            "activity_regularizer": null,
                            "kernel_constraint": null,
                            "bias_constraint": null
                        },
                        "name": "block4_conv3",
                        "inbound_nodes": [
                            {
                                "args": [
                                    {
                                        "class_name": "__keras_tensor__",
                                        "config": {
                                            "shape": [
                                                null,
                                                8,
                                                8,
                                                512
                                            ],
                                            "dtype": "float32",
                                            "keras_history": [
                                                "block4_conv2",
                                                0,
                                                0
                                            ]
                                        }
                                    }
                                ],
                                "kwargs": {}
                            }
                        ]
                    },
                    {
                        "class_name": "MaxPooling2D",
                        "config": {
                            "name": "block4_pool",
                            "trainable": true,
                            "dtype": {
                                "module": "keras",
                                "class_name": "DTypePolicy",
                                "config": {
                                    "name": "float32"
                                },
                                "registered_name": null
                            },
                            "pool_size": [
                                2,
                                2
                            ],
                            "padding": "valid",
                            "strides": [
                                2,
                                2
                            ],
                            "data_format": "channels_last"
                        },
                        "name": "block4_pool",
                        "inbound_nodes": [
                            {
                                "args": [
                                    {
                                        "class_name": "__keras_tensor__",
                                        "config": {
                                            "shape": [
                                                null,
                                                8,
                                                8,
                                                512
                                            ],
                                            "dtype": "float32",
                                            "keras_history": [
                                                "block4_conv3",
                                                0,
                                                0
                                            ]
                                        }
                                    }
                                ],
                                "kwargs": {}
                            }
                        ]
                    },
                    {
                        "class_name": "Conv2D",
                        "config": {
                            "name": "block5_conv1",
                            "trainable": true,
                            "dtype": {
                                "module": "keras",
                                "class_name": "DTypePolicy",
                                "config": {
                                    "name": "float32"
                                },
                                "registered_name": null
                            },
                            "filters": 512,
                            "kernel_size": [
                                3,
                                3
                            ],
                            "strides": [
                                1,
                                1
                            ],
                            "padding": "same",
                            "data_format": "channels_last",
                            "dilation_rate": [
                                1,
                                1
                            ],
                            "groups": 1,
                            "activation": "relu",
                            "use_bias": true,
                            "kernel_initializer": {
                                "module": "keras.initializers",
                                "class_name": "GlorotUniform",
                                "config": {
                                    "seed": null
                                },
                                "registered_name": null
                            },
                            "bias_initializer": {
                                "module": "keras.initializers",
                                "class_name": "Zeros",
                                "config": {},
                                "registered_name": null
                            },
                            "kernel_regularizer": null,
                            "bias_regularizer": null,
                            "activity_regularizer": null,
                            "kernel_constraint": null,
                            "bias_constraint": null
                        },
                        "name": "block5_conv1",
                        "inbound_nodes": [
                            {
                                "args": [
                                    {
                                        "class_name": "__keras_tensor__",
                                        "config": {
                                            "shape": [
                                                null,
                                                4,
                                                4,
                                                512
                                            ],
                                            "dtype": "float32",
                                            "keras_history": [
                                                "block4_pool",
                                                0,
                                                0
                                            ]
                                        }
                                    }
                                ],
                                "kwargs": {}
                            }
                        ]
                    },
                    {
                        "class_name": "Conv2D",
                        "config": {
                            "name": "block5_conv2",
                            "trainable": true,
                            "dtype": {
                                "module": "keras",
                                "class_name": "DTypePolicy",
                                "config": {
                                    "name": "float32"
                                },
                                "registered_name": null
                            },
                            "filters": 512,
                            "kernel_size": [
                                3,
                                3
                            ],
                            "strides": [
                                1,
                                1
                            ],
                            "padding": "same",
                            "data_format": "channels_last",
                            "dilation_rate": [
                                1,
                                1
                            ],
                            "groups": 1,
                            "activation": "relu",
                            "use_bias": true,
                            "kernel_initializer": {
                                "module": "keras.initializers",
                                "class_name": "GlorotUniform",
                                "config": {
                                    "seed": null
                                },
                                "registered_name": null
                            },
                            "bias_initializer": {
                                "module": "keras.initializers",
                                "class_name": "Zeros",
                                "config": {},
                                "registered_name": null
                            },
                            "kernel_regularizer": null,
                            "bias_regularizer": null,
                            "activity_regularizer": null,
                            "kernel_constraint": null,
                            "bias_constraint": null
                        },
                        "name": "block5_conv2",
                        "inbound_nodes": [
                            {
                                "args": [
                                    {
                                        "class_name": "__keras_tensor__",
                                        "config": {
                                            "shape": [
                                                null,
                                                4,
                                                4,
                                                512
                                            ],
                                            "dtype": "float32",
                                            "keras_history": [
                                                "block5_conv1",
                                                0,
                                                0
                                            ]
                                        }
                                    }
                                ],
                                "kwargs": {}
                            }
                        ]
                    },
                    {
                        "class_name": "Conv2D",
                        "config": {
                            "name": "block5_conv3",
                            "trainable": true,
                            "dtype": {
                                "module": "keras",
                                "class_name": "DTypePolicy",
                                "config": {
                                    "name": "float32"
                                },
                                "registered_name": null
                            },
                            "filters": 512,
                            "kernel_size": [
                                3,
                                3
                            ],
                            "strides": [
                                1,
                                1
                            ],
                            "padding": "same",
                            "data_format": "channels_last",
                            "dilation_rate": [
                                1,
                                1
                            ],
                            "groups": 1,
                            "activation": "relu",
                            "use_bias": true,
                            "kernel_initializer": {
                                "module": "keras.initializers",
                                "class_name": "GlorotUniform",
                                "config": {
                                    "seed": null
                                },
                                "registered_name": null
                            },
                            "bias_initializer": {
                                "module": "keras.initializers",
                                "class_name": "Zeros",
                                "config": {},
                                "registered_name": null
                            },
                            "kernel_regularizer": null,
                            "bias_regularizer": null,
                            "activity_regularizer": null,
                            "kernel_constraint": null,
                            "bias_constraint": null
                        },
                        "name": "block5_conv3",
                        "inbound_nodes": [
                            {
                                "args": [
                                    {
                                        "class_name": "__keras_tensor__",
                                        "config": {
                                            "shape": [
                                                null,
                                                4,
                                                4,
                                                512
                                            ],
                                            "dtype": "float32",
                                            "keras_history": [
                                                "block5_conv2",
                                                0,
                                                0
                                            ]
                                        }
                                    }
                                ],
                                "kwargs": {}
                            }
                        ]
                    },
                    {
                        "class_name": "MaxPooling2D",
                        "config": {
                            "name": "block5_pool",
                            "trainable": true,
                            "dtype": {
                                "module": "keras",
                                "class_name": "DTypePolicy",
                                "config": {
                                    "name": "float32"
                                },
                                "registered_name": null
                            },
                            "pool_size": [
                                2,
                                2
                            ],
                            "padding": "valid",
                            "strides": [
                                2,
                                2
                            ],
                            "data_format": "channels_last"
                        },
                        "name": "block5_pool",
                        "inbound_nodes": [
                            {
                                "args": [
                                    {
                                        "class_name": "__keras_tensor__",
                                        "config": {
                                            "shape": [
                                                null,
                                                4,
                                                4,
                                                512
                                            ],
                                            "dtype": "float32",
                                            "keras_history": [
                                                "block5_conv3",
                                                0,
                                                0
                                            ]
                                        }
                                    }
                                ],
                                "kwargs": {}
                            }
                        ]
                    },
                    {
                        "class_name": "GlobalAveragePooling2D",
                        "config": {
                            "name": "global_average_pooling2d",
                            "trainable": true,
                            "dtype": {
                                "module": "keras",
                                "class_name": "DTypePolicy",
                                "config": {
                                    "name": "float32"
                                },
                                "registered_name": null
                            },
                            "data_format": "channels_last",
                            "keepdims": false
                        },
                        "name": "global_average_pooling2d",
                        "inbound_nodes": [
                            {
                                "args": [
                                    {
                                        "class_name": "__keras_tensor__",
                                        "config": {
                                            "shape": [
                                                null,
                                                2,
                                                2,
                                                512
                                            ],
                                            "dtype": "float32",
                                            "keras_history": [
                                                "block5_pool",
                                                0,
                                                0
                                            ]
                                        }
                                    }
                                ],
                                "kwargs": {}
                            }
                        ]
                    },
                    {
                        "class_name": "Dense",
                        "config": {
                            "name": "dense",
                            "trainable": true,
                            "dtype": {
                                "module": "keras",
                                "class_name": "DTypePolicy",
                                "config": {
                                    "name": "float32"
                                },
                                "registered_name": null
                            },
                            "units": 2048,
                            "activation": "relu",
                            "use_bias": true,
                            "kernel_initializer": {
                                "module": "keras.initializers",
                                "class_name": "GlorotUniform",
                                "config": {
                                    "seed": null
                                },
                                "registered_name": null
                            },
                            "bias_initializer": {
                                "module": "keras.initializers",
                                "class_name": "Zeros",
                                "config": {},
                                "registered_name": null
                            },
                            "kernel_regularizer": null,
                            "bias_regularizer": null,
                            "kernel_constraint": null,
                            "bias_constraint": null
                        },
                        "name": "dense",
                        "inbound_nodes": [
                            {
                                "args": [
                                    {
                                        "class_name": "__keras_tensor__",
                                        "config": {
                                            "shape": [
                                                null,
                                                512
                                            ],
                                            "dtype": "float32",
                                            "keras_history": [
                                                "global_average_pooling2d",
                                                0,
                                                0
                                            ]
                                        }
                                    }
                                ],
                                "kwargs": {}
                            }
                        ]
                    },
                    {
                        "class_name": "Dense",
                        "config": {
                            "name": "dense_1",
                            "trainable": true,
                            "dtype": {
                                "module": "keras",
                                "class_name": "DTypePolicy",
                                "config": {
                                    "name": "float32"
                                },
                                "registered_name": null
                            },
                            "units": 2048,
                            "activation": "relu",
                            "use_bias": true,
                            "kernel_initializer": {
                                "module": "keras.initializers",
                                "class_name": "GlorotUniform",
                                "config": {
                                    "seed": null
                                },
                                "registered_name": null
                            },
                            "bias_initializer": {
                                "module": "keras.initializers",
                                "class_name": "Zeros",
                                "config": {},
                                "registered_name": null
                            },
                            "kernel_regularizer": null,
                            "bias_regularizer": null,
                            "kernel_constraint": null,
                            "bias_constraint": null
                        },
                        "name": "dense_1",
                        "inbound_nodes": [
                            {
                                "args": [
                                    {
                                        "class_name": "__keras_tensor__",
                                        "config": {
                                            "shape": [
                                                null,
                                                2048
                                            ],
                                            "dtype": "float32",
                                            "keras_history": [
                                                "dense",
                                                0,
                                                0
                                            ]
                                        }
                                    }
                                ],
                                "kwargs": {}
                            }
                        ]
                    },
                    {
                        "class_name": "Dense",
                        "config": {
                            "name": "dense_2",
                            "trainable": true,
                            "dtype": {
                                "module": "keras",
                                "class_name": "DTypePolicy",
                                "config": {
                                    "name": "float32"
                                },
                                "registered_name": null
                            },
                            "units": 10,
                            "activation": "softmax",
                            "use_bias": true,
                            "kernel_initializer": {
                                "module": "keras.initializers",
                                "class_name": "GlorotUniform",
                                "config": {
                                    "seed": null
                                },
                                "registered_name": null
                            },
                            "bias_initializer": {
                                "module": "keras.initializers",
                                "class_name": "Zeros",
                                "config": {},
                                "registered_name": null
                            },
                            "kernel_regularizer": null,
                            "bias_regularizer": null,
                            "kernel_constraint": null,
                            "bias_constraint": null
                        },
                        "name": "dense_2",
                        "inbound_nodes": [
                            {
                                "args": [
                                    {
                                        "class_name": "__keras_tensor__",
                                        "config": {
                                            "shape": [
                                                null,
                                                2048
                                            ],
                                            "dtype": "float32",
                                            "keras_history": [
                                                "dense_1",
                                                0,
                                                0
                                            ]
                                        }
                                    }
                                ],
                                "kwargs": {}
                            }
                        ]
                    }
                ],
                "input_layers": [
                    [
                        "input_1",
                        0,
                        0
                    ]
                ],
                "output_layers": [
                    [
                        "dense_2",
                        0,
                        0
                    ]
                ]
            }
        },
        "training_config": {
            "loss": "categorical_crossentropy",
            "loss_weights": null,
            "metrics": [
                [
                    {
                        "class_name": "MeanMetricWrapper",
                        "config": {
                            "name": "categorical_accuracy",
                            "dtype": "float32",
                            "fn": "categorical_accuracy"
                        }
                    }
                ]
            ],
            "weighted_metrics": null,
            "run_eagerly": false,
            "steps_per_execution": 1,
            "jit_compile": false,
            "optimizer_config": {
                "class_name": "SGD",
                "config": {
                    "name": "SGD",
                    "learning_rate": 0.009999999776482582,
                    "weight_decay": null,
                    "clipnorm": null,
                    "global_clipnorm": null,
                    "clipvalue": null,
                    "use_ema": false,
                    "ema_momentum": 0.99,
                    "ema_overwrite_frequency": null,
                    "loss_scale_factor": null,
                    "gradient_accumulation_steps": null,
                    "momentum": 0.0,
                    "nesterov": false
                }
            }
        }
    },
    "weightsManifest": [
        {
            "paths": [
                "group1-shard1of20.bin",
                "group1-shard2of20.bin",
                "group1-shard3of20.bin",
                "group1-shard4of20.bin",
                "group1-shard5of20.bin",
                "group1-shard6of20.bin",
                "group1-shard7of20.bin",
                "group1-shard8of20.bin",
                "group1-shard9of20.bin",
                "group1-shard10of20.bin",
                "group1-shard11of20.bin",
                "group1-shard12of20.bin",
                "group1-shard13of20.bin",
                "group1-shard14of20.bin",
                "group1-shard15of20.bin",
                "group1-shard16of20.bin",
                "group1-shard17of20.bin",
                "group1-shard18of20.bin",
                "group1-shard19of20.bin",
                "group1-shard20of20.bin"
            ],
            "weights": [
                {
                    "name": "block1_conv1/kernel",
                    "shape": [
                        3,
                        3,
                        3,
                        64
                    ],
                    "dtype": "float32"
                },
                {
                    "name": "block1_conv1/bias",
                    "shape": [
                        64
                    ],
                    "dtype": "float32"
                },
                {
                    "name": "block1_conv2/kernel",
                    "shape": [
                        3,
                        3,
                        64,
                        64
                    ],
                    "dtype": "float32"
                },
                {
                    "name": "block1_conv2/bias",
                    "shape": [
                        64
                    ],
                    "dtype": "float32"
                },
                {
                    "name": "block2_conv1/kernel",
                    "shape": [
                        3,
                        3,
                        64,
                        128
                    ],
                    "dtype": "float32"
                },
                {
                    "name": "block2_conv1/bias",
                    "shape": [
                        128
                    ],
                    "dtype": "float32"
                },
                {
                    "name": "block2_conv2/kernel",
                    "shape": [
                        3,
                        3,
                        128,
                        128
                    ],
                    "dtype": "float32"
                },
                {
                    "name": "block2_conv2/bias",
                    "shape": [
                        128
                    ],
                    "dtype": "float32"
                },
                {
                    "name": "block3_conv1/kernel",
                    "shape": [
                        3,
                        3,
                        128,
                        256
                    ],
                    "dtype": "float32"
                },
                {
                    "name": "block3_conv1/bias",
                    "shape": [
                        256
                    ],
                    "dtype": "float32"
                },
                {
                    "name": "block3_conv2/kernel",
                    "shape": [
                        3,
                        3,
                        256,
                        256
                    ],
                    "dtype": "float32"
                },
                {
                    "name": "block3_conv2/bias",
                    "shape": [
                        256
                    ],
                    "dtype": "float32"
                },
                {
                    "name": "block3_conv3/kernel",
                    "shape": [
                        3,
                        3,
                        256,
                        256
                    ],
                    "dtype": "float32"
                },
                {
                    "name": "block3_conv3/bias",
                    "shape": [
                        256
                    ],
                    "dtype": "float32"
                },
                {
                    "name": "block4_conv1/kernel",
                    "shape": [
                        3,
                        3,
                        256,
                        512
                    ],
                    "dtype": "float32"
                },
                {
                    "name": "block4_conv1/bias",
                    "shape": [
                        512
                    ],
                    "dtype": "float32"
                },
                {
                    "name": "block4_conv2/kernel",
                    "shape": [
                        3,
                        3,
                        512,
                        512
                    ],
                    "dtype": "float32"
                },
                {
                    "name": "block4_conv2/bias",
                    "shape": [
                        512
                    ],
                    "dtype": "float32"
                },
                {
                    "name": "block4_conv3/kernel",
                    "shape": [
                        3,
                        3,
                        512,
                        512
                    ],
                    "dtype": "float32"
                },
                {
                    "name": "block4_conv3/bias",
                    "shape": [
                        512
                    ],
                    "dtype": "float32"
                },
                {
                    "name": "block5_conv1/kernel",
                    "shape": [
                        3,
                        3,
                        512,
                        512
                    ],
                    "dtype": "float32"
                },
                {
                    "name": "block5_conv1/bias",
                    "shape": [
                        512
                    ],
                    "dtype": "float32"
                },
                {
                    "name": "block5_conv2/kernel",
                    "shape": [
                        3,
                        3,
                        512,
                        512
                    ],
                    "dtype": "float32"
                },
                {
                    "name": "block5_conv2/bias",
                    "shape": [
                        512
                    ],
                    "dtype": "float32"
                },
                {
                    "name": "block5_conv3/kernel",
                    "shape": [
                        3,
                        3,
                        512,
                        512
                    ],
                    "dtype": "float32"
                },
                {
                    "name": "block5_conv3/bias",
                    "shape": [
                        512
                    ],
                    "dtype": "float32"
                },
                {
                    "name": "dense/kernel",
                    "shape": [
                        512,
                        2048
                    ],
                    "dtype": "float32"
                },
                {
                    "name": "dense/bias",
                    "shape": [
                        2048
                    ],
                    "dtype": "float32"
                },
                {
                    "name": "dense_1/kernel",
                    "shape": [
                        2048,
                        2048
                    ],
                    "dtype": "float32"
                },
                {
                    "name": "dense_1/bias",
                    "shape": [
                        2048
                    ],
                    "dtype": "float32"
                },
                {
                    "name": "dense_2/kernel",
                    "shape": [
                        2048,
                        10
                    ],
                    "dtype": "float32"
                },
                {
                    "name": "dense_2/bias",
                    "shape": [
                        10
                    ],
                    "dtype": "float32"
                }
            ]
        }
    ]
}